…
            "WARNING:absl:`lr` is deprecated in Keras optimizer, please use `learning_rate` or use the legacy optimizer, e.g.,tf.keras.optimizers.legacy.Adam.\n"
          ]
        },
        {
          "output_type": "stream",
          "name": "stdout",
          "text": [
            "Model: \"sequential\"\n",
            "_________________________________________________________________\n",
            " Layer (type)                Output Shape              Param #   \n",
            "=================================================================\n",
            " conv2d (Conv2D)             (None, 32, 32, 64)        1792      \n",
            "                                                                 \n",
            " leaky_re_lu (LeakyReLU)     (None, 32, 32, 64)        0         \n",
            "                                                                 \n",
            " conv2d_1 (Conv2D)           (None, 16, 16, 128)       73856     \n",
            "                                                                 \n",
            " leaky_re_lu_1 (LeakyReLU)   (None, 16, 16, 128)       0         \n",
            "                                                                 \n",
            " conv2d_2 (Conv2D)           (None, 8, 8, 128)         147584    \n",
            "                                                                 \n",
            " leaky_re_lu_2 (LeakyReLU)   (None, 8, 8, 128)         0         \n",
            "                                                                 \n",
            " conv2d_3 (Conv2D)           (None, 4, 4, 256)         295168    \n",
            "                                                                 \n",
            " leaky_re_lu_3 (LeakyReLU)   (None, 4, 4, 256)         0         \n",
            "                                                                 \n",
            " flatten (Flatten)           (None, 4096)              0         \n",
            "                                                                 \n",
            " dropout (Dropout)           (None, 4096)              0         \n",
            "                                                                 \n",
            " dense (Dense)               (None, 1)                 4097      \n",
            "                                                                 \n",
            "=================================================================\n",
            "Total params: 522497 (1.99 MB)\n",
            "Trainable params: 522497 (1.99 MB)\n",
            "Non-trainable params: 0 (0.00 Byte)\n",
            "_________________________________________________________________\n"
…
          "height": 1000
        },
        "id": "fsukrCGLWxk1",
        "outputId": "1dbe3c2e-c7ba-48b3-80af-dcc871e2c9b0"
      },
      "execution_count": 13,
      "outputs": [
        {
          "output_type": "stream",
          "name": "stdout",
          "text": [
            "Model: \"sequential_2\"\n",
            "_________________________________________________________________\n",
            " Layer (type)                Output Shape              Param #   \n",
            "=================================================================\n",
            " dense_2 (Dense)             (None, 4096)              413696    \n",
            "                                                                 \n",
            " leaky_re_lu_8 (LeakyReLU)   (None, 4096)              0         \n",
            "                                                                 \n",
            " reshape (Reshape)           (None, 4, 4, 256)         0         \n",
            "                                                                 \n",
            " conv2d_transpose (Conv2DTr  (None, 8, 8, 128)         524416    \n",
            " anspose)                                                        \n",
            "                                                                 \n",
            " leaky_re_lu_9 (LeakyReLU)   (None, 8, 8, 128)         0         \n",
            "                                                                 \n",
            " conv2d_transpose_1 (Conv2D  (None, 16, 16, 128)       262272    \n",
            " Transpose)                                                      \n",
            "                                                                 \n",
            " leaky_re_lu_10 (LeakyReLU)  (None, 16, 16, 128)       0         \n",
            "                                                                 \n",
            " conv2d_transpose_2 (Conv2D  (None, 32, 32, 128)       262272    \n",
            " Transpose)                                                      \n",
            "                                                                 \n",
            " leaky_re_lu_11 (LeakyReLU)  (None, 32, 32, 128)       0         \n",
            "                                                                 \n",
            " conv2d_8 (Conv2D)           (None, 32, 32, 3)         3459      \n",
            "                                                                 \n",
            "=================================================================\n",
            "Total params: 1466115 (5.59 MB)\n",
            "Trainable params: 1466115 (5.59 MB)\n",
            "Non-trainable params: 0 (0.00 Byte)\n",
            "_________________________________________________________________\n"
…
